meta_graphs {
  meta_info_def {
    stripped_op_list {
      op {
        name: "Const"
        output_arg {
          name: "output"
          type_attr: "dtype"
        }
        attr {
          name: "value"
          type: "tensor"
        }
        attr {
          name: "dtype"
          type: "type"
        }
      }
      op {
        name: "NoOp"
      }
      op {
        name: "PartitionedCall"
        input_arg {
          name: "args"
          type_list_attr: "Tin"
        }
        output_arg {
          name: "output"
          type_list_attr: "Tout"
        }
        attr {
          name: "Tin"
          type: "list(type)"
          has_minimum: true
        }
        attr {
          name: "Tout"
          type: "list(type)"
          has_minimum: true
        }
        attr {
          name: "f"
          type: "func"
        }
        attr {
          name: "config"
          type: "string"
          default_value {
            s: ""
          }
        }
        attr {
          name: "config_proto"
          type: "string"
          default_value {
            s: ""
          }
        }
        attr {
          name: "executor_type"
          type: "string"
          default_value {
            s: ""
          }
        }
      }
      op {
        name: "Placeholder"
        output_arg {
          name: "output"
          type_attr: "dtype"
        }
        attr {
          name: "dtype"
          type: "type"
        }
        attr {
          name: "shape"
          type: "shape"
          default_value {
            shape {
              unknown_rank: true
            }
          }
        }
      }
      op {
        name: "ReadVariableOp"
        input_arg {
          name: "resource"
          type: DT_RESOURCE
        }
        output_arg {
          name: "value"
          type_attr: "dtype"
        }
        attr {
          name: "dtype"
          type: "type"
        }
        is_stateful: true
      }
      op {
        name: "StatefulPartitionedCall"
        input_arg {
          name: "args"
          type_list_attr: "Tin"
        }
        output_arg {
          name: "output"
          type_list_attr: "Tout"
        }
        attr {
          name: "Tin"
          type: "list(type)"
          has_minimum: true
        }
        attr {
          name: "Tout"
          type: "list(type)"
          has_minimum: true
        }
        attr {
          name: "f"
          type: "func"
        }
        attr {
          name: "config"
          type: "string"
          default_value {
            s: ""
          }
        }
        attr {
          name: "config_proto"
          type: "string"
          default_value {
            s: ""
          }
        }
        attr {
          name: "executor_type"
          type: "string"
          default_value {
            s: ""
          }
        }
        is_stateful: true
      }
      op {
        name: "VarHandleOp"
        output_arg {
          name: "resource"
          type: DT_RESOURCE
        }
        attr {
          name: "container"
          type: "string"
          default_value {
            s: ""
          }
        }
        attr {
          name: "shared_name"
          type: "string"
          default_value {
            s: ""
          }
        }
        attr {
          name: "dtype"
          type: "type"
        }
        attr {
          name: "shape"
          type: "shape"
        }
        attr {
          name: "allowed_devices"
          type: "list(string)"
          default_value {
            list {
            }
          }
        }
        is_stateful: true
      }
    }
    tags: "serve"
    tensorflow_version: "1.15.0"
    tensorflow_git_version: "unknown"
    stripped_default_attrs: true
  }
  graph_def { node {
  name: "Input"
  op: "Placeholder"
  attr {
    key: "dtype"
    value {
      type: DT_INT64
    }
  }
  attr {
    key: "shape"
    value {
      shape {
        dim {
          size: 1
        }
        dim {
          size: 93
        }
      }
    }
  }
}
node {
  name: "sequential_1/dense_3/Cast"
  op: "Cast"
  input: "Input"
  attr {
    key: "DstT"
    value {
      type: DT_FLOAT
    }
  }
  attr {
    key: "SrcT"
    value {
      type: DT_INT64
    }
  }
  attr {
    key: "Truncate"
    value {
      b: false
    }
  }
}
node {
  name: "sequential_1/dense_3/MatMul/ReadVariableOp/resource"
  op: "Const"
  attr {
    key: "dtype"
    value {
      type: DT_FLOAT
    }
  }
  attr {
    key: "value"
    value {
      tensor {
        dtype: DT_FLOAT
        tensor_shape {
          dim {
            size: 93
          }
          dim {
            size: 24
          }
        }
        tensor_content: "…"
      }
    }
  }
}
node {
  name: "sequential_1/dense_3/MatMul/ReadVariableOp"
  op: "Identity"
  input: "sequential_1/dense_3/MatMul/ReadVariableOp/resource"
  attr {
    key: "T"
    value {
      type: DT_FLOAT
    }
  }
}
node {
  name: "sequential_1/dense_3/MatMul"
  op: "MatMul"
  input: "sequential_1/dense_3/Cast"
  input: "sequential_1/dense_3/MatMul/ReadVariableOp"
  attr {
    key: "T"
    value {
      type: DT_FLOAT
    }
  }
  attr {
    key: "transpose_a"
    value {
      b: false
    }
  }
  attr {
    key: "transpose_b"
    value {
      b: false
    }
  }
}
node {
  name: "sequential_1/dense_3/BiasAdd/ReadVariableOp/resource"
  op: "Const"
  attr {
    key: "dtype"
    value {
      type: DT_FLOAT
    }
  }
  attr {
    key: "value"
    value {
      tensor {
        dtype: DT_FLOAT
        tensor_shape {
          dim {
            size: 24
          }
        }
        tensor_content: "…"
      }
    }
  }
}
node {
  name: "sequential_1/dense_3/BiasAdd/ReadVariableOp"
  op: "Identity"
  input: "sequential_1/dense_3/BiasAdd/ReadVariableOp/resource"
  attr {
    key: "T"
    value {
      type: DT_FLOAT
    }
  }
}
node {
  name: "sequential_1/dense_3/BiasAdd"
  op: "BiasAdd"
  input: "sequential_1/dense_3/MatMul"
  input: "sequential_1/dense_3/BiasAdd/ReadVariableOp"
  attr {
    key: "T"
    value {
      type: DT_FLOAT
    }
  }
  attr {
    key: "data_format"
    value {
      s: "NHWC"
    }
  }
}
node {
  name: "sequential_1/dense_3/Relu"
  op: "Relu"
  input: "sequential_1/dense_3/BiasAdd"
  attr {
    key: "T"
    value {
      type: DT_FLOAT
    }
  }
}
node {
  name: "sequential_1/dense_4/MatMul/ReadVariableOp/resource"
  op: "Const"
  attr {
    key: "dtype"
    value {
      type: DT_FLOAT
    }
  }
  attr {
    key: "value"
    value {
      tensor {
        dtype: DT_FLOAT
        tensor_shape {
          dim {
            size: 24
          }
          dim {
            size: 12
          }
        }
        tensor_content: "…"
      }
    }
  }
}
node {
  name: "sequential_1/dense_4/MatMul/ReadVariableOp"
  op: "Identity"
  input: "sequential_1/dense_4/MatMul/ReadVariableOp/resource"
  attr {
    key: "T"
    value {
      type: DT_FLOAT
    }
  }
}
node {
  name: "sequential_1/dense_4/MatMul"
  op: "MatMul"
  input: "sequential_1/dense_3/Relu"
  input: "sequential_1/dense_4/MatMul/ReadVariableOp"
  attr {
    key: "T"
    value {
      type: DT_FLOAT
    }
  }
  attr {
    key: "transpose_a"
    value {
      b: false
    }
  }
  attr {
    key: "transpose_b"
    value {
      b: false
    }
  }
}
node {
  name: "sequential_1/dense_4/BiasAdd/ReadVariableOp/resource"
  op: "Const"
  attr {
    key: "dtype"
    value {
      type: DT_FLOAT
    }
  }
  attr {
    key: "value"
    value {
      tensor {
        dtype: DT_FLOAT
        tensor_shape {
          dim {
            size: 12
          }
        }
        tensor_content: "…"
      }
    }
  }
}
node {
  name: "sequential_1/dense_4/BiasAdd/ReadVariableOp"
  op: "Identity"
  input: "sequential_1/dense_4/BiasAdd/ReadVariableOp/resource"
  attr {
    key: "T"
    value {
      type: DT_FLOAT
    }
  }
}
node {
  name: "sequential_1/dense_4/BiasAdd"
  op: "BiasAdd"
  input: "sequential_1/dense_4/MatMul"
  input: "sequential_1/dense_4/BiasAdd/ReadVariableOp"
  attr {
    key: "T"
    value {
      type: DT_FLOAT
    }
  }
  attr {
    key: "data_format"
    value {
      s: "NHWC"
    }
  }
}
node {
  name: "sequential_1/dense_4/Relu"
  op: "Relu"
  input: "sequential_1/dense_4/BiasAdd"
  attr {
    key: "T"
    value {
      type: DT_FLOAT
    }
  }
}
node {
  name: "sequential_1/dense_5/MatMul/ReadVariableOp/resource"
  op: "Const"
  attr {
    key: "dtype"
    value {
      type: DT_FLOAT
    }
  }
  attr {
    key: "value"
    value {
      tensor {
        dtype: DT_FLOAT
        tensor_shape {
          dim {
            size: 12
          }
          dim {
            size: 6
          }
        }
        tensor_content: "…"
      }
    }
  }
}
node {
  name: "sequential_1/dense_5/MatMul/ReadVariableOp"
  op: "Identity"
  input: "sequential_1/dense_5/MatMul/ReadVariableOp/resource"
  attr {
    key: "T"
    value {
      type: DT_FLOAT
    }
  }
}
node {
  name: "sequential_1/dense_5/MatMul"
  op: "MatMul"
  input: "sequential_1/dense_4/Relu"
  input: "sequential_1/dense_5/MatMul/ReadVariableOp"
  attr {
    key: "T"
    value {
      type: DT_FLOAT
    }
  }
  attr {
    key: "transpose_a"
    value {
      b: false
    }
  }
  attr {
    key: "transpose_b"
    value {
      b: false
    }
  }
}
node {
  name: "sequential_1/dense_5/BiasAdd/ReadVariableOp/resource"
  op: "Const"
  attr {
    key: "dtype"
    value {
      type: DT_FLOAT
    }
  }
  attr {
    key: "value"
    value {
      tensor {
        dtype: DT_FLOAT
        tensor_shape {
          dim {
            size: 6
          }
        }
        tensor_content: "\237pR\300\216\252u>\354i\247>\373\237\270=hI\314?\260\\\023\300"
      }
    }
  }
}
node {
  name: "sequential_1/dense_5/BiasAdd/ReadVariableOp"
  op: "Identity"
  input: "sequential_1/dense_5/BiasAdd/ReadVariableOp/resource"
  attr {
    key: "T"
    value {
      type: DT_FLOAT
    }
  }
}
node {
  name: "sequential_1/dense_5/BiasAdd"
  op: "BiasAdd"
  input: "sequential_1/dense_5/MatMul"
  input: "sequential_1/dense_5/BiasAdd/ReadVariableOp"
  attr {
    key: "T"
    value {
      type: DT_FLOAT
    }
  }
  attr {
    key: "data_format"
    value {
      s: "NHWC"
    }
  }
}
node {
  name: "sequential_1/dense_5/Sigmoid"
  op: "Sigmoid"
  input: "sequential_1/dense_5/BiasAdd"
  attr {
    key: "T"
    value {
      type: DT_FLOAT
    }
  }
}
node {
  name: "Identity"
  op: "Identity"
  input: "sequential_1/dense_5/Sigmoid"
  attr {
    key: "T"
    value {
      type: DT_FLOAT
    }
  }
}
versions {
  producer: 414
}
 }
  signature_def {
    key: "predict"
    value {
      inputs {
        key: "Input"
        value {
          name: "Input:0"
          dtype: DT_INT64
          tensor_shape {
            dim {
              size: 1
            }
            dim {
              size: 93
             }
          }
        }
      }
      outputs {
        key: "prob"
        value {
          name: "Identity:0"
          dtype: DT_FLOAT
          tensor_shape {
            dim {
              size: 1
            }
            dim {
              size: 6
            }
          }
        }
      }
      method_name: "tensorflow/serving/predict"
    }
  }
}